…
[TRAIN] Total # of input files after applying limit: 18921
[VAL] Total # of input files for validation (10% of training): 2103
Samples per file: 60
Total number of samples in dataset: 1135260
Steps per epoch: 35477
Samples per file: 60
Total number of samples in dataset: 126180
Validation steps: 3944
Steps per epoch: 35477
Validation steps: 3944
Model: "Emulator"
┏━━━━━━━━━━━━━━━━━━━━━┳━━━━━━━━━━━━━━━━━━━┳━━━━━━━━━━━━┳━━━━━━━━━━━━━━━━━━━┓
┃ Layer (type)        ┃ Output Shape      ┃    Param # ┃ Connected to      ┃
┡━━━━━━━━━━━━━━━━━━━━━╇━━━━━━━━━━━━━━━━━━━╇━━━━━━━━━━━━╇━━━━━━━━━━━━━━━━━━━┩
│ input (InputLayer)  │ (None, 125)       │          0 │ -                 │
├─────────────────────┼───────────────────┼────────────┼───────────────────┤
│ dense (Dense)       │ (None, 512)       │     64,512 │ input[0][0]       │
├─────────────────────┼───────────────────┼────────────┼───────────────────┤
│ dense_1 (Dense)     │ (None, 512)       │    262,656 │ dense[0][0]       │
├─────────────────────┼───────────────────┼────────────┼───────────────────┤
│ dense_2 (Dense)     │ (None, 128)       │     65,664 │ dense_1[0][0]     │
├─────────────────────┼───────────────────┼────────────┼───────────────────┤
│ dense_3 (Dense)     │ (None, 120)       │     15,480 │ dense_2[0][0]     │
├─────────────────────┼───────────────────┼────────────┼───────────────────┤
│ dense_4 (Dense)     │ (None, 8)         │      1,032 │ dense_2[0][0]     │
├─────────────────────┼───────────────────┼────────────┼───────────────────┤
│ concatenate         │ (None, 128)       │          0 │ dense_3[0][0],    │
│ (Concatenate)       │                   │            │ dense_4[0][0]     │
└─────────────────────┴───────────────────┴────────────┴───────────────────┘
 Total params: 409,344 (1.56 MB)
 Trainable params: 409,344 (1.56 MB)
 Non-trainable params: 0 (0.00 B)

Epoch 1/10
====================
Epoch 1:   0%|          | 0/35477 [00:00<?, ?step/s]Epoch 1:   0%|          | 0/3547
…
